desktop/tauri/src-tauri/atom_wake_word.onnx (onnx, 351537 bytes, 9 tensors)

1.weight f4 [32, 2688]
000000 db 69 40 bc 8e 1e dc 3c ce cb 82 3b ba a6 72 bc
       -0.011743988 0.026870038 0.0039915806 -0.0148102585
000010 dc 62 d3 3b 73 ea e9 3c 08 6e 95 bb 94 11 de bc
       0.006450994 0.028554177 -0.004560236 -0.027107991
000020 ef ca 15 3c 96 66 e2 3c 56 e2 d7 bc f7 13 ce bb
       0.009142621 0.027636807 -0.026353043 -0.006289001
000030 25 b0 b9 3b 67 e1 d5 bc de 40 24 bc 91 28 ba 3c
       0.00566675 -0.026108457 -0.010025231 0.022724422
000040 d1 1f de 3c ee 9a 9c bc e2 fe a9 3c cc 9a df bc
       0.02711478 -0.019116845 0.02075142 -0.027295493
000050 60 3b 21 3b 09 44 c5 ba ef 40 ce bc 0c 90 9b ba
       0.002460204 -0.0015050183 -0.025177447 -0.0011868491
000060 fd ff e4 bc 6b fc df 3c 5f 2f 84 bb 5b 9a 42 3b
       -0.027954096 0.027342042 -0.0040339674 0.0029694054
000070 21 00 9d 3c 83 e5 0e bc a2 b7 7b bb bd cc 1a bb
       0.0191651 -0.008721712 -0.0038409014 -0.0023620569
000080 f2 47 55 bc f6 dd 7a bc 0a 6d 69 bc 9b 2a ad ba
       -0.013017641 -0.015311709 -0.014247188 -0.001321155
000090 bf 8a 79 3c 86 ea 68 3b d0 21 02 3c 56 c6 15 3c
       0.015230834 0.0035540177 0.007942632 0.009141525
0000a0 ee 5d c6 bb 74 40 da bb 4b 0f 30 bb 80 eb 0f bc
       -0.0060536778 -0.0066605154 -0.0026864584 -0.008784175
0000b0 db cc e0 3b 0c 5d 74 ba 2d 28 bd bc 1f 80 3c 3c
       0.006860358 -0.00093217264 -0.023090446 0.011505156
0000c0 d7 6f 0e bc 8f 9b f3 b9 a0 de 35 bc d4 ed a0 3c
       -0.008693657 -0.00046464472 -0.011100441 0.019644655
0000d0 d6 01 8b 3c 9b ab d7 3a c5 44 68 bc b6 84 9f bb
       0.016968649 0.0016454341 -0.014176552 -0.0048681153
0000e0 43 9b 58 bc 21 75 d1 3c 80 24 d3 bc 37 a3 ae b9
       -0.013220611 0.025568547 -0.02577424 -0.0003330947
0000f0 52 5a 07 3c e0 5d 90 3b 41 8b 83 3b fb 32 a1 bc
       0.00826128 0.004405722 0.004014403 -0.01967763
000100 73 7e 01 bc 18 65 dc 3c ae f9 8b 3c 21 31 d2 ba
       -0.007903683 0.026903674 0.01708683 -0.001603637
000110 2d de dc bc 41 7e 06 3c 51 ee f3 3a 39 af a4 bb
       -0.02696141 0.008208812 0.0018610453 -0.005025771
000120 64 91 a0 3c b3 4a d0 ba b6 d6 cb bb 13 62 60 ba
       0.019600578 -0.0015891403 -0.006220664 -0.0008559536
000130 d6 ed 26 3c 8b a8 17 3c b9 a3 81 bc 0b 53 99 bc
       0.01018854 0.009256492 -0.01582514 -0.018716356
000140 f0 d9 e9 bb 65 5c 45 3c 8b b8 ce 3c 45 88 c8 bc
       -0.007136576 0.012045954 0.025234481 -0.02447904
000150 5d 01 95 3c 9f f3 be bb 63 c7 b5 3c 12 c6 f1 bb
       0.018189127 -0.0058273817 0.022189802 -0.007378348
000160 bf 65 98 3c 3d 7d ad 3c 46 bc 8c 3c 78 95 c1 3c
       0.018603204 0.021177882 0.01717962 0.023630843
000170 39 0a 3a bb c7 6f 81 bc 23 8f f4 3c f5 8d f6 38
       -0.002838744 -0.01580037 0.02985341 0.00011756636
000180 93 c6 b4 bc c1 d8 a2 3b 62 2b 37 ba 5a aa 88 bc
       -0.022067344 0.0049696867 -0.00069873605 -0.016682792
000190 6f ba 09 3c 13 7e 49 ba 01 3a 19 3c f5 cb c2 bc
       0.008406266 -0.0007686328 0.009352208 -0.023778895
0001a0 59 35 31 3c 56 89 e0 3c 7a f0 ae bc 88 74 d7 bc
       0.010815942 0.027409237 -0.021354903 -0.026300684
0001b0 12 cf fb 3b b0 62 ea 3b 5d 41 26 bc 40 9d 04 3c
       0.007684597 0.0071528777 -0.01014742 0.008094132
0001c0 cc dd bb 3b 84 55 ae bb b3 15 bb 39 91 b5 8e bb
       0.0057332274 -0.005320253 0.00035683587 -0.0043551405
0001d0 a2 60 1b 3c 8c 55 d0 3c bb cd ac bc 8d 13 96 bc
       0.009483488 0.025431417 -0.021094194 -0.01831987
0001e0 45 c5 7f bb eb cf a7 3b b1 e3 9d bc 4c 8e 17 bc
       -0.0039027494 0.0051212213 -0.01927361 -0.009250235
0001f0 06 ce 0a 3c 1d 55 a7 3c 9c 90 aa bc a0 53 1e 3c
       0.008471971 0.020426327 -0.020820908 0.009663492
000200 d7 c6 d7 3a d6 bb 50 3b e9 99 d9 bc 31 95 cf ba
       0.0016462457 0.003185024 -0.026562648 -0.0015837309
000210 03 f0 8a 3c d7 15 b9 3c c2 d9 3a bc 4b c9 8e 39
       0.01696015 0.022593422 -0.011404457 0.00027234326
000220 b6 2e 39 bc be d4 88 3c 8e fa b7 3c 5c cd 47 bc
       -0.011302641 0.016703006 0.022458341 -0.012194958
000230 e8 24 50 bc bd 93 34 ba 84 e8 e9 bc cb 00 8d 3c
       -0.012704112 -0.000688847 -0.028553255 0.017212292
000240 d3 92 a9 3c a4 b3 a6 ba 0e f5 5b bc 60 de 3f ba
       0.020699894 -0.0012718332 -0.013425125 -0.0007319208
000250 8c d6 20 bb dc 57 96 bc d4 38 90 bc 6d b8 61 3b
       -0.0024541942 -0.018352441 -0.017605223 0.0034442202
000260 53 8d e6 bc 64 c8 9d 3c fe 8a 65 3b e3 bc a4 bc
       -0.02814356 0.019260593 0.0035025473 -0.0201096
000270 df 8e f4 3b 9d 7d a4 3c 18 4c 2f 3c dd 40 83 bc
       0.0074633206 0.020079428 0.0106992945 -0.01602214
000280 9f 2a 6f 3c b5 c0 a5 bb 4a 8a 81 bb 7e 60 8f bc
       0.014597564 -0.005058373 -0.003953253 -0.017502066
000290 57 aa 75 bc 61 83 7f bc 44 ec 81 bc 55 5a 32 3c
       -0.014994225 -0.015595288 -0.01585973 0.010885795
0002a0 44 8a 8c 3c 4a aa 07 3c 8e 90 8e 3c 11 9b 9b 3c
       0.017155774 0.008280346 0.017402913 0.01899484
0002b0 1f a9 3a ba 59 48 b8 3a a5 c0 d9 3a ad 64 30 bc
       -0.0007120538 0.0014059647 0.0016613199 -0.0107661905
0002c0 df 9f e6 3b d0 4e 03 3c 21 e4 1c 3c 53 1a 99 bc
       0.007038101 0.008014396 0.009575875 -0.01868931
0002d0 32 da 6b 3c 9f f9 63 bc f8 8d 98 3c 30 10 c5 bc
       0.014395284 -0.013914495 0.018622383 -0.02405557
0002e0 8b b9 b0 3c 41 16 1f 3b f1 b6 71 bb 54 4c c2 3c
       0.021572849 0.002427474 -0.0036882723 0.023718037
0002f0 ce 9d 47 b8 06 fb 0e 3a ea bf 03 3b b6 b0 6b 3c
       -4.7592264e-05 0.00054542755 0.0020103403 0.014385393
000300 ee 36 f8 3b cc 67 ae 3c 6e da 24 3c 31 8b 90 3a
       0.0075749075 0.021289729 0.010061843 0.001102781
000310 2f f4 81 ba f3 2e 86 3a e1 0c 9f 3a 98 30 88 3b
       -0.0009914691 0.0010237381 0.0012134576 0.0041561835
000320 73 59 15 bb 22 03 a9 3a ae d5 58 3b 09 31 6a 3b
       -0.0022788912 0.001289461 0.0033086347 0.0035734794
000330 e1 f2 6c 3c 9f 4a db bc 93 85 d2 bc 84 f5 a4 bb
       0.014462204 -0.02676898 -0.025698459 -0.0050341506
000340 5c 53 a2 3c a7 34 b7 ba 13 5b 4d 3c da 3b de 3a
       0.01981514 -0.0013977484 0.012533921 0.0016955093
000350 93 5c a4 3b 57 0f 34 3b 09 a8 55 bb 41 67 40 3b
       0.0050159185 0.0027474964 -0.0032601377 0.002935842
000360 0b 71 95 bc 38 51 be 3c 83 39 fa 3b cc c2 ba bc
       -0.01824238 0.023232087 0.0076362505 -0.022797965
000370 5e 91 a5 3c 1d 01 92 bb 2f 8f 50 bc 49 f3 8d 3c
       0.020210918 -0.004455699 -0.01272945 0.017327921
000380 97 f8 ce bb 98 dd d0 bc 7d b2 05 3c 23 61 33 3c
       -0.0063162553 -0.02549629 0.008160231 0.010948452
000390 4f 8d 17 3c 8f f7 03 3c 22 50 ac bc 6f db 1a 3c
       0.009249999 0.008054628 -0.021034304 0.009451731
0003a0 03 a0 03 bb 2c 41 84 bb 03 71 6b 3a 09 f5 dd bc
       -0.0020084388 -0.0040360894 0.00089813786 -0.02709438
0003b0 3c eb a8 bc d6 18 6a bc fa 82 2f bc bc ef d9 bb
       -0.020619981 -0.014288148 -0.01071238 -0.006650893
0003c0 a1 e4 0e 3c 5d 25 95 bc 4d 31 cc bc eb 6f d4 3c
       0.008721502 -0.018206293 -0.024925852 0.025932273
0003d0 14 d8 67 3c 01 fb 2d bc ce 4a f7 bb 44 92 80 bc
       0.014150638 -0.010618926 -0.007546759 -0.015694745
0003e0 c0 57 82 bc 79 b9 cd 3c 5c 7c 78 bc 42 73 da bb
       -0.015910983 0.025112854 -0.015166368 -0.006666572
0003f0 15 e7 90 3c 3c e3 97 3c f5 8f 91 ba ee 2e f7 39
       0.017688313 0.018540971 -0.0011105525 0.00047146477

1.bias f4 [32]
000000 fa 88 bc bb a8 3e 17 bc 7d d5 5b 3c 67 97 3c 3c
       -0.0057536336 -0.009231247 0.013417599 0.0115107065
000010 6e 38 0d bb b0 d5 60 bc dd 64 61 3c 9e bb 24 3c
       -0.0021548527 -0.013722822 0.013756958 0.010054497
000020 85 78 a5 bb b0 ff d6 3b 8d 0a 7b ba 1f 6d 14 3c
       -0.0050497674 0.006561242 -0.00095764623 0.00905922
000030 97 da ef bb 0e ce 95 3c 42 24 5f bc 6f b0 c5 bc
       -0.007319759 0.018286731 -0.013619484 -0.024131982
000040 b5 28 87 bb 93 85 ee 3b 4a 73 3e bc 72 3c 0f 3b
       -0.0041247257 0.007279107 -0.011624167 0.0021856097
000050 3e f9 38 bc 9f 26 83 bc e1 e3 d3 3c 82 22 a4 bc
       -0.011289893 -0.016009627 0.025865497 -0.020035986
000060 28 f9 cd bb d1 1e 0c bc e2 11 88 bc 8f cc 0f 3c
       -0.0062858053 -0.008552269 -0.01661009 0.008776798
000070 28 44 82 bc bf 9a 40 3c fa a3 c1 ba 23 8a 3f 3c
       -0.01590164 0.011755644 -0.00147736 0.011690649

2.weight f4 [32]
000000 20 4c 84 3f 6c 77 7e 3f e5 71 81 3f 6b 77 7e 3f
       1.0335732 0.99400973 1.0112883 0.9940097
000010 a8 39 83 3f d7 bb 79 3f 00 00 80 3f 32 77 7e 3f
       1.025197 0.97552246 1.0 0.9940063
000020 62 77 7e 3f 23 75 80 3f 6b 77 7e 3f 60 7e 7e 3f
       0.99400914 1.0035747 0.9940097 0.9941158
000030 49 66 7a 3f f9 df 78 3f c1 c2 7b 3f 05 c4 80 3f
       0.97812325 0.97216755 0.98344046 1.005982
000040 6c 77 7e 3f 68 bd 7d 3f 00 00 80 3f 8c 77 7e 3f
       0.99400973 0.99117136 1.0 0.99401164
000050 40 c4 80 3f 6c 77 7e 3f 86 8c 81 3f 39 c4 80 3f
       1.0059891 0.99400973 1.0121009 1.0059882
000060 83 c3 80 3f a4 bd 7c 3f 6b 77 7e 3f 6b 77 7e 3f
       1.0059665 0.9872687 0.9940097 0.9940097
000070 00 00 80 3f 6b 77 7e 3f 00 00 80 3f ea 84 7e 3f
       1.0 0.9940097 1.0 0.9942156

2.bias f4 [32]
000000 87 99 d7 3c 8d 49 c4 bb bc ed 5e 3c 9a 49 c4 bb
       0.026318325 -0.0059902132 0.013606485 -0.0059902193
000010 de e4 84 3c ab f9 86 bc 00 00 00 00 9a 6f c9 bb
       0.016222414 -0.016476473 0.0 -0.006147337
000020 3a 82 c5 bb c7 74 93 3b 9e 49 c4 bb ba 3f c4 bb
       -0.006027487 0.004500005 -0.005990221 -0.005989042
000030 54 49 1e bc 64 95 b1 bc 3d d1 23 bc ff 1a c4 3b
       -0.0096610375 -0.02167768 -0.009998617 0.0059846635
000040 7d 49 c4 bb b1 a2 c8 bb 00 00 00 00 13 48 c4 bb
       -0.005990206 -0.00612291 0.0 -0.005990037
000050 62 47 c4 3b 92 49 c4 bb ed 24 46 3c 1c 49 c4 bb
       0.005989955 -0.0059902156 0.012093765 -0.0059901606
000060 e1 3a c4 3b 6a 69 1a bc a3 49 c4 bb 9b 49 c4 bb
       0.005988464 -0.009424547 -0.0059902235 -0.00599022
000070 00 00 00 00 8e 49 c4 bb 00 00 00 00 d5 f0 c3 bb
       0.0 -0.0059902137 0.0 -0.005979637

4.weight f4 [32, 32]
000000 f0 32 df bd ea e1 18 be b7 54 30 3e 37 ed 03 3e
       -0.108983874 -0.1492993 0.17219816 0.12883459
000010 80 e7 38 3e 90 83 19 3e a3 25 2f 3e d0 47 2a 3e
       0.1805706 0.14991593 0.17104201 0.16628957
000020 5b 11 0b 3e d6 62 29 3e dd 2a 11 be a4 21 48 3d
       0.1358084 0.16541609 -0.14176507 0.048860207
000030 af 82 52 3d 7a 00 1c 3e 95 7e 16 be 79 07 4b 3a
       0.05139416 0.15234557 -0.14696725 0.0007744949
000040 2b d3 0d 3e d4 c9 0f 3e 08 fd 65 3d a5 50 f6 bd
       0.13850085 0.14041835 0.056149513 -0.120271005
000050 c3 3e a9 3d 22 13 2a 3d 6f ec 40 bd 14 4a 8a bd
       0.08263924 0.041522153 -0.04710048 -0.067524105
000060 51 52 b6 3d d0 c7 a6 3d dd 64 12 be 53 26 ab 3d
       0.08902419 0.0814358 -0.14296289 0.08356919
000070 e0 e3 23 3d 6a 7f d0 bd c5 c8 21 3e cb b4 f0 bd
       0.04001224 -0.10180552 0.15799244 -0.117532335
000080 ee f3 31 3e ac a6 ed bc d3 90 55 3c 9f 60 ed 3d
       0.17378208 -0.02901014 0.013035017 0.11590695
000090 85 00 c3 bd 54 a6 9b bd b0 8d c0 bc 2b 40 e3 bd
       -0.095215835 -0.07600084 -0.023505062 -0.110962234
0000a0 ef 9f 34 be b5 20 0f bc 60 34 31 be 39 85 3c 3d
       -0.17639135 -0.008735825 -0.17305136 0.04602549
0000b0 98 71 06 bd 68 5b 95 bc 5a 17 85 bd 9d 88 cb bd
       -0.032823175 -0.018232062 -0.064985946 -0.09938166
0000c0 b1 0d 85 bc 54 85 aa bd 18 83 ae bc fe ca 01 be
       -0.01624188 -0.083262116 -0.021302745 -0.12675092
0000d0 70 80 bd bd 7f c7 8f 3d b1 75 1f be 60 ec b6 3c
       -0.09253013 0.07020473 -0.1557224 0.02232951
0000e0 c5 62 b0 bd fe a5 bc bd 92 ac bf bd 3a 1f 08 3e
       -0.08612589 -0.09211348 -0.09359087 0.13293162
0000f0 63 a6 94 bd aa d9 34 be 00 ec 1b ba aa 17 0d be
       -0.07258298 -0.17661157 -0.00059479475 -0.13778558
000100 0e 9a 68 bd ab a8 1e 3e d4 7f dc bd 20 c4 6c bd
       -0.056787543 0.15494029 -0.10766569 -0.057804227
000110 9b f9 23 3c 87 ea 83 3d 27 f7 be bd 91 bd 11 3e
       0.010008241 0.06441217 -0.09324484 0.1423247
000120 d5 43 10 3d 42 fe d9 3c 7e 42 d4 3d 56 5e 26 3e
       0.03522094 0.026610497 0.10364245 0.16246924
000130 d8 30 d1 bd de 58 78 3d 47 99 26 be 39 fb b0 3c
       -0.10214394 0.060631625 -0.16269408 0.021604167
000140 74 10 47 bd 82 92 ac bc 56 4f f1 3d 51 b3 4d 3d
       -0.048599675 -0.021065954 0.1178271 0.050219838
000150 18 0f 32 3d 75 75 c7 3d 95 12 bb 3c 14 ca 22 3e
       0.043471426 0.097392 0.022836009 0.15897399
000160 aa e8 71 3d f0 69 ed 3b 6e 77 13 be 90 d1 0f be
       0.059059776 0.0072452947 -0.14401028 -0.14044785
000170 0e 22 e9 3d f1 45 43 3d 29 66 25 3e fe a8 bc bd
       0.113834485 0.047674123 0.16152252 -0.0921192
000180 74 f0 ac bd 17 13 91 bc d2 65 d6 bd 20 8d 19 be
       -0.084443 -0.017709298 -0.104686394 -0.14995241
000190 e7 a2 88 3d 50 94 0a 3d 5e 01 a8 3d 8f df 24 3d
       0.06671696 0.033832848 0.08203386 0.040252265
0001a0 7d 8f bf bc df 3c 47 be 7d 6c 2d be 84 30 1f be
       -0.02338385 -0.19456814 -0.16935916 -0.15545851
0001b0 88 2d fc 3d b7 aa b5 ba 13 b1 2f be 5b 6f 27 3e
       0.12313372 -0.0013860081 -0.17157392 0.16351072
0001c0 b5 b7 97 3d fb 02 04 3e 32 78 af bd 0c 11 09 be
       0.07408086 0.12891762 -0.08567847 -0.13385409
0001d0 eb 7b 94 bd 0e 28 14 3e 8f ce 48 3d 27 f9 d6 3d
       -0.07250198 0.14468405 0.049025115 0.10496741
0001e0 dc d3 bd bd f0 86 d7 bd 8b 3d f1 bc 8d 16 03 be
       -0.092689246 -0.10523784 -0.029448291 -0.12801571
0001f0 75 cc 10 3e 61 2a 89 3d 8b 84 34 be 2c 7d 6a bd
       0.14140494 0.06697536 -0.17628686 -0.05724828
000200 8b 3f 2d 3d 88 e9 ec 3d f2 7b 19 bd 49 a0 1a be
       0.042296927 0.1156798 -0.03747172 -0.15100206
000210 8d f4 94 bd e8 54 20 3d 00 d6 f6 ba cf 2c 2a be
       -0.07273207 0.039143473 -0.0018832088 -0.16618656
000220 9e ab 97 3c f7 b8 1c bd f4 6a 1a be b1 b0 3f bc
       0.01851445 -0.038262334 -0.15079862 -0.011699841
000230 e3 dc 0e be 8c 2a 67 bd 9a 69 3b be 05 e3 9c bd
       -0.13951449 -0.05643706 -0.18302003 -0.07660488
000240 12 8d 38 3d ba 3b be bd 7e 0f 70 bd de 0f 66 3c
       0.04505641 -0.09288736 -0.058608525 0.014041869
000250 8c d5 21 3e 04 7b b1 3c 76 f3 b0 bc 8c 2b 1b be
       0.15804118 0.021665104 -0.021600466 -0.1515333
000260 ae 6e db bd 49 76 27 3e a9 3d 33 be 1c fb 45 3d
       -0.1071447 0.16353716 -0.1750399 0.04833518
000270 d0 ef db bc 13 b4 36 bc 90 4a 98 3c d7 d4 e4 3c
       -0.02684775 -0.0111513315 0.018590242 0.027933521
000280 f0 50 37 3e a0 00 8a ba a1 7f 1d 3e f2 30 28 3c
       0.17901969 -0.0010528751 0.15380718 0.010265576
000290 89 0e 35 3e a2 e1 ba bd 51 c5 a8 bd 36 ed 1e be
       0.17681326 -0.09125067 -0.0824076 -0.15520176
0002a0 bb 87 2c bd 58 1c 01 bd 64 72 c6 3d 38 aa 11 3e
       -0.04212163 -0.03152117 0.09689787 0.1422509
0002b0 58 56 0f be f0 06 16 3e 1b 48 28 bc 7a 49 ce 3d
       -0.13997781 0.14651084 -0.0102710975 0.10072608
0002c0 15 38 05 be d7 dc a6 3d 20 3a ff bb 3a 11 9c 3c
       -0.13009675 0.081475906 -0.0077889115 0.019051183
0002d0 42 b6 27 bd 77 49 7c 3d 70 11 c6 3d 43 8a 45 3b
       -0.0409453 0.0615935 0.09671295 0.0030142225
0002e0 f6 6e 55 bd fe 14 08 be 0b 84 52 3c 2f 1c f9 bd
       -0.052107774 -0.13289258 0.012848864 -0.12163579
0002f0 cc fc 94 3d c8 52 63 bc e8 81 e0 3c d4 06 ff bd
       0.0727478 -0.013874717 0.027405694 -0.12452474
000300 8b ad ad bd 47 88 a4 3d 19 fd dc bd c2 b5 15 3e
       -0.08480366 0.08033805 -0.10790462 0.14620116
000310 ad 46 4b bd da 87 32 3d f6 56 94 bd 45 5e 29 3e
       -0.04962795 0.04358659 -0.07243149 0.16539867
000320 29 af f2 3d 29 19 1c be 5b 73 02 3e 93 ef 5d 3c
       0.118498154 -0.15243973 0.12739317 0.0135458885
000330 f2 ed 61 bd c2 7a bc bd aa 49 dd bd 98 d0 ea 3d
       -0.055158563 -0.09203102 -0.10805066 0.11465567
000340 82 68 75 bb ec bc e8 3d ac 41 2e bd 90 3d d9 3d
       -0.0037446325 0.11364159 -0.0425431 0.10607445
000350 e5 b1 2e 3e 7e 6d 8a bd cb fd 80 bd 0f 54 ca bc
       0.17060049 -0.06759165 -0.06298407 -0.024698285
000360 b3 eb 88 3d 69 7b 9a 3d 43 0a 2e 3e 02 8c 77 3d
       0.06685581 0.0754307 0.16996102 0.060436256
000370 0f 2f 15 3e d4 1c c9 3c 3c 1b 8f bd f8 d9 00 bd
       0.14568733 0.02454988 -0.069876164 -0.03145787
000380 44 aa cb bd 8d dd dc bd dc 96 90 bc 89 9c 11 bd
       -0.09944585 -0.10784445 -0.01765006 -0.035549674
000390 6f 56 8a 3c 19 19 82 3d 78 41 04 be e1 d0 1a be
       0.016886918 0.06352443 -0.129156 -0.15118743
0003a0 01 35 4b bc b5 1b 87 bd 64 03 6d bd 76 c6 a6 3d
       -0.012402774 -0.065970816 -0.05786456 0.08143322
0003b0 a3 1c dc 3c 40 3a c4 3d 77 d7 ed 3c 3a 00 ca bc
       0.026869124 0.09581423 0.029033406 -0.024658311
0003c0 e9 97 47 3d f4 af 16 3e e4 f9 0d bd c1 d2 d4 bd
       0.048728857 0.14715558 -0.034662142 -0.103917606
0003d0 e9 8f f4 bd 9b 9b 93 3a 80 bc 14 be 19 44 8c bd
       -0.11941511 0.0011261584 -0.14525032 -0.06848926
0003e0 61 43 07 3d c5 72 9a 3c 37 4c d4 3d 29 65 0b bd
       0.033023242 0.018853555 0.10366099 -0.03403202
0003f0 92 3e bc 3d 30 ac d8 bd 7c db c5 bd b3 06 da bd
       0.09191622 -0.10579717 -0.09661004 -0.10645809

4.bias f4 [32]
000000 56 c2 33 bd 64 85 48 3c 6d 0a 4b 3c d1 d1 c8 bd
       -0.043886505 0.012238834 0.012392622 -0.09805644
000010 38 0e 01 bd 0c 3c 18 3e 0b fc ca 3d 4c 86 0b be
       -0.0315077 0.14866656 0.09911355 -0.13625449
000020 19 55 e1 bd 29 c9 be 3d 2e 9a 00 bd a2 5f d8 bd
       -0.11002559 0.09315712 -0.031397037 -0.105651155
000030 14 21 30 bd 08 1b 5e bd a7 aa 5d 3d 27 ac c9 3d
       -0.043000296 -0.054224998 0.054117825 0.098472886
000040 17 2e 70 bd 97 d4 df 3d 9f 59 27 3e f7 4b 77 3b
       -0.058637705 0.1092922 0.16342781 0.0037734488
000050 9d e1 09 be 0b c8 11 3d 54 b2 2c be 17 2a 00 be
       -0.13464971 0.035591166 -0.16864902 -0.12516056
000060 63 5b 04 3e df 57 4a 3d 72 62 4b be c5 08 8c 3d
       0.12925486 0.049400207 -0.19861773 0.0683761
000070 0b de 39 3e df 95 34 bd 0c 17 72 bc d2 56 94 3c
       0.18151109 -0.04408824 -0.014776003 0.018107805

5.weight f4 [32]
000000 b7 21 85 3f 00 00 80 3f 03 01 84 3f dc 79 81 3f
       1.0400914 1.0 1.0312809 1.0115314
000010 00 00 80 3f 0a fa 87 3f 6b 77 7e 3f 00 00 80 3f
       1.0 1.0623181 0.9940097 1.0
000020 48 c4 80 3f 60 f0 7a 3f 95 89 87 3f 00 59 7e 3f
       1.00599 0.98023033 1.0588862 0.99354553
000030 67 0d 86 3f 48 c4 80 3f e7 58 7e 3f 5d 7f 87 3f
       1.047284 1.00599 0.99354404 1.0585743
000040 f1 8c 7e 3f 6b 77 7e 3f 62 b4 87 3f 59 f0 80 3f
       0.9943381 0.9940097 1.0601923 1.0073348
000050 a8 4c 7d 3f 00 00 80 3f b1 91 82 3f 6c 77 7e 3f
       0.98945093 1.0 1.0200711 0.99400973
000060 db df 85 3f 6b 77 7e 3f 49 36 80 3f 29 76 7e 3f
       1.045894 0.9940097 1.0016567 0.9939905
000070 b1 ff 85 3f 11 b6 86 3f 43 61 87 3f 00 00 80 3f
       1.0468656 1.0524312 1.0576557 1.0

5.bias f4 [32]
000000 80 7d 2e 3d 00 00 00 00 76 52 37 3d 8e 3b 6d 3c
       0.042600155 0.0 0.044756375 0.014479531
000010 00 00 00 00 69 28 42 3d 9f 49 c4 bb 00 00 00 00
       0.0 0.04740182 -0.0059902216 0.0
000020 6c 49 c4 3b 52 e4 97 bc 4b 72 46 3d 8e 59 00 bc
       0.005990198 -0.018541489 0.048448842 -0.0078338515
000030 7b 46 4c 3d 96 49 c4 3b 44 b9 2d bc 32 ee 3e 3d
       0.049871903 0.0059902174 -0.010603253 0.04661388
000040 2f 73 b8 bb 9c 49 c4 bb 43 0d 48 3d 17 cd 7a 3c
       -0.0056289653 -0.0059902202 0.048840772 0.015307686
000050 cc 28 4a bc 00 00 00 00 1e e6 bd 3c 8a 49 c4 bb
       -0.012338828 0.0 0.023181017 -0.005990212
000060 89 3b 42 3d 9d 49 c4 bb 16 33 a9 3c fb 41 ec bb
       0.04742006 -0.0059902207 0.020654242 -0.007210014
000070 e0 f9 33 3d 26 43 4e 3d 12 0d 47 3d 00 00 00 00
       0.04393947 0.050357006 0.04859645 0.0

7.weight f4 [1, 32]
000000 50 6e 31 be ee 25 d2 3d eb e8 c3 bc 2d 98 9c bc
       -0.17327237 0.10261141 -0.023914775 -0.019115532
000010 2a 50 58 bd 5e bd 72 be 5b cc 1a 3e d4 ea 1c be
       -0.052810825 -0.2370505 0.15117018 -0.15323955
000020 b2 89 c6 bc cd 81 c3 bb 7f 43 38 be 7b 0a 82 3c
       -0.02423558 -0.005966401 -0.17994498 0.015874138
000030 f5 ae c7 bd 10 f3 20 be 2d 6c d1 3d c4 89 3c be
       -0.09750167 -0.15717721 0.10225711 -0.18411928
000040 e3 39 b4 3d f9 9c e1 3d 51 38 58 be 41 71 15 bd
       0.088001035 0.11016268 -0.21115233 -0.03648496
000050 09 05 25 3d c5 70 2f be ac ec be bc 26 aa c8 3d
       0.040288005 -0.17132862 -0.023306213 0.09798078
000060 f5 87 26 be 21 4f c9 3d 5d 9c aa bc 74 78 be 3d
       -0.16262801 0.09829546 -0.020826513 0.09300318
000070 27 54 26 be 13 b5 eb bd 47 cf 24 be 9f 87 1b 3e
       -0.16243039 -0.115091465 -0.16094695 0.15188454
